…
    "rank": 0,
    "resume": null,
    "return_polar": false,
    "scheduler": "step",
    "seed": 2000,
    "start_epoch": 0,
    "sync_bn": false,
    "test_area": 5,
    "train_freq": 250,
    "val_freq": 1,
    "voxel_max": 80000,
    "voxel_size": 0.04,
    "weight_decay": 0.01,
    "workers": 24,
    "world_size": 2
}
[2022-12-12 22:27:21,198 INFO train.py line 128 503095] => creating models ...
[2022-12-12 22:27:21,198 INFO train.py line 129 503095] Classes: 13
[2022-12-12 22:27:21,198 INFO train.py line 130 503095] Model(
  (sa1): PointNetSetAbstraction(
    (mlp_convs): ModuleList(
      (0): Conv1d(9, 32, kernel_size=(1,), stride=(1,))
      (1): Conv1d(32, 32, kernel_size=(1,), stride=(1,))
      (2): Conv1d(32, 64, kernel_size=(1,), stride=(1,))
    )
    (mlp_bns): ModuleList(
      (0): BatchNorm1d(32, eps=1e-05, momentum=0.1, affine=True, track_running_stats=True)
      (1): BatchNorm1d(32, eps=1e-05, momentum=0.1, affine=True, track_running_stats=True)
      (2): BatchNorm1d(64, eps=1e-05, momentum=0.1, affine=True, track_running_stats=True)
    )
  )
  (sa2): PointNetSetAbstraction(
    (mlp_convs): ModuleList(
      (0): Conv1d(67, 64, kernel_size=(1,), stride=(1,))
      (1): Conv1d(64, 64, kernel_size=(1,), stride=(1,))
      (2): Conv1d(64, 128, kernel_size=(1,), stride=(1,))
    )
    (mlp_bns): ModuleList(
      (0): BatchNorm1d(64, eps=1e-05, momentum=0.1, affine=True, track_running_stats=True)
      (1): BatchNorm1d(64, eps=1e-05, momentum=0.1, affine=True, track_running_stats=True)
      (2): BatchNorm1d(128, eps=1e-05, momentum=0.1, affine=True, track_running_stats=True)
    )
  )
  (sa3): PointNetSetAbstraction(
    (mlp_convs): ModuleList(
      (0): Conv1d(131, 128, kernel_size=(1,), stride=(1,))
      (1): Conv1d(128, 128, kernel_size=(1,), stride=(1,))
      (2): Conv1d(128, 256, kernel_size=(1,), stride=(1,))
    )
    (mlp_bns): ModuleList(
      (0): BatchNorm1d(128, eps=1e-05, momentum=0.1, affine=True, track_running_stats=True)
      (1): BatchNorm1d(128, eps=1e-05, momentum=0.1, affine=True, track_running_stats=True)
      (2): BatchNorm1d(256, eps=1e-05, momentum=0.1, affine=True, track_running_stats=True)
    )
  )
  (sa4): PointNetSetAbstraction(
    (mlp_convs): ModuleList(
      (0): Conv1d(259, 256, kernel_size=(1,), stride=(1,))
      (1): Conv1d(256, 256, kernel_size=(1,), stride=(1,))
      (2): Conv1d(256, 512, kernel_size=(1,), stride=(1,))
    )
    (mlp_bns): ModuleList(
      (0): BatchNorm1d(256, eps=1e-05, momentum=0.1, affine=True, track_running_stats=True)
      (1): BatchNorm1d(256, eps=1e-05, momentum=0.1, affine=True, track_running_stats=True)
      (2): BatchNorm1d(512, eps=1e-05, momentum=0.1, affine=True, track_running_stats=True)
    )
  )
  (fp4): PointNetFeaturePropagation(
    (mlp_convs): ModuleList(
      (0): Linear(in_features=768, out_features=256, bias=True)
      (1): Linear(in_features=256, out_features=256, bias=True)
    )
    (mlp_bns): ModuleList(
      (0): BatchNorm1d(256, eps=1e-05, momentum=0.1, affine=True, track_running_stats=True)
      (1): BatchNorm1d(256, eps=1e-05, momentum=0.1, affine=True, track_running_stats=True)
    )
  )
  (fp3): PointNetFeaturePropagation(
    (mlp_convs): ModuleList(
      (0): Linear(in_features=384, out_features=256, bias=True)
      (1): Linear(in_features=256, out_features=256, bias=True)
    )
    (mlp_bns): ModuleList(
      (0): BatchNorm1d(256, eps=1e-05, momentum=0.1, affine=True, track_running_stats=True)
      (1): BatchNorm1d(256, eps=1e-05, momentum=0.1, affine=True, track_running_stats=True)
    )
  )
  (fp2): PointNetFeaturePropagation(
    (mlp_convs): ModuleList(
      (0): Linear(in_features=320, out_features=256, bias=True)
      (1): Linear(in_features=256, out_features=128, bias=True)
    )
    (mlp_bns): ModuleList(
      (0): BatchNorm1d(256, eps=1e-05, momentum=0.1, affine=True, track_running_stats=True)
      (1): BatchNorm1d(128, eps=1e-05, momentum=0.1, affine=True, track_running_stats=True)
    )
  )
  (fp1): PointNetFeaturePropagation(
    (mlp_convs): ModuleList(
      (0): Linear(in_features=128, out_features=128, bias=True)
      (1): Linear(in_features=128, out_features=128, bias=True)
      (2): Linear(in_features=128, out_features=128, bias=True)
    )
    (mlp_bns): ModuleList(
      (0): BatchNorm1d(128, eps=1e-05, momentum=0.1, affine=True, track_running_stats=True)
      (1): BatchNorm1d(128, eps=1e-05, momentum=0.1, affine=True, track_running_stats=True)
      (2): BatchNorm1d(128, eps=1e-05, momentum=0.1, affine=True, track_running_stats=True)
    )
  )
  (classifier): Sequential(
    (0): Linear(in_features=128, out_features=128, bias=True)
    (1): BatchNorm1d(128, eps=1e-05, momentum=0.1, affine=True, track_running_stats=True)
    (2): ReLU(inplace=True)
    (3): Dropout(p=0.5, inplace=False)
    (4): Linear(in_features=128, out_features=13, bias=True)
  )
)
[2022-12-12 22:27:21,199 INFO train.py line 133 503095] Total Number of Parameters: 0.968 M
[2022-12-12 22:27:25,669 INFO train.py line 163 503095] Totally 204 samples in train set.
[2022-12-12 22:27:25,669 INFO train.py line 164 503095] Totally 68 samples in val set.
[2022-12-12 22:27:32,348 INFO distributed.py line 693 503095] Reducer buckets have been rebuilt in this iteration.
…
