…
    "rank": 0,
    "resume": null,
    "return_polar": false,
    "scheduler": "step",
    "seed": 2000,
    "start_epoch": 0,
    "sync_bn": false,
    "test_area": 5,
    "train_freq": 250,
    "val_freq": 1,
    "voxel_max": 80000,
    "voxel_size": 0.04,
    "weight_decay": 0.01,
    "workers": 24,
    "world_size": 4
}
[2022-12-11 00:05:20,548 INFO train.py line 128 1955593] => creating models ...
[2022-12-11 00:05:20,548 INFO train.py line 129 1955593] Classes: 13
[2022-12-11 00:05:20,548 INFO train.py line 130 1955593] Model(
  (sa1): SurfaceAbstractionCD(
    (mlp_convs): ModuleList(
      (0): Conv1d(32, 32, kernel_size=(1,), stride=(1,))
      (1): Conv1d(32, 64, kernel_size=(1,), stride=(1,))
    )
    (mlp_bns): ModuleList(
      (0): BatchNorm1d(32, eps=1e-05, momentum=0.1, affine=True, track_running_stats=True)
      (1): BatchNorm1d(64, eps=1e-05, momentum=0.1, affine=True, track_running_stats=True)
    )
    (mlp_l0): Conv1d(3, 32, kernel_size=(1,), stride=(1,))
    (mlp_f0): Conv1d(16, 32, kernel_size=(1,), stride=(1,))
    (bn_l0): BatchNorm1d(32, eps=1e-05, momentum=0.1, affine=True, track_running_stats=True)
    (bn_f0): BatchNorm1d(32, eps=1e-05, momentum=0.1, affine=True, track_running_stats=True)
  )
  (sa2): SurfaceAbstractionCD(
    (mlp_convs): ModuleList(
      (0): Conv1d(64, 64, kernel_size=(1,), stride=(1,))
      (1): Conv1d(64, 128, kernel_size=(1,), stride=(1,))
    )
    (mlp_bns): ModuleList(
      (0): BatchNorm1d(64, eps=1e-05, momentum=0.1, affine=True, track_running_stats=True)
      (1): BatchNorm1d(128, eps=1e-05, momentum=0.1, affine=True, track_running_stats=True)
    )
    (mlp_l0): Conv1d(3, 64, kernel_size=(1,), stride=(1,))
    (mlp_f0): Conv1d(74, 64, kernel_size=(1,), stride=(1,))
    (bn_l0): BatchNorm1d(64, eps=1e-05, momentum=0.1, affine=True, track_running_stats=True)
    (bn_f0): BatchNorm1d(64, eps=1e-05, momentum=0.1, affine=True, track_running_stats=True)
  )
  (sa3): SurfaceAbstractionCD(
    (mlp_convs): ModuleList(
      (0): Conv1d(128, 128, kernel_size=(1,), stride=(1,))
      (1): Conv1d(128, 256, kernel_size=(1,), stride=(1,))
    )
    (mlp_bns): ModuleList(
      (0): BatchNorm1d(128, eps=1e-05, momentum=0.1, affine=True, track_running_stats=True)
      (1): BatchNorm1d(256, eps=1e-05, momentum=0.1, affine=True, track_running_stats=True)
    )
    (mlp_l0): Conv1d(3, 128, kernel_size=(1,), stride=(1,))
    (mlp_f0): Conv1d(138, 128, kernel_size=(1,), stride=(1,))
    (bn_l0): BatchNorm1d(128, eps=1e-05, momentum=0.1, affine=True, track_running_stats=True)
    (bn_f0): BatchNorm1d(128, eps=1e-05, momentum=0.1, affine=True, track_running_stats=True)
  )
  (sa4): SurfaceAbstractionCD(
    (mlp_convs): ModuleList(
      (0): Conv1d(256, 256, kernel_size=(1,), stride=(1,))
      (1): Conv1d(256, 512, kernel_size=(1,), stride=(1,))
    )
    (mlp_bns): ModuleList(
      (0): BatchNorm1d(256, eps=1e-05, momentum=0.1, affine=True, track_running_stats=True)
      (1): BatchNorm1d(512, eps=1e-05, momentum=0.1, affine=True, track_running_stats=True)
    )
    (mlp_l0): Conv1d(3, 256, kernel_size=(1,), stride=(1,))
    (mlp_f0): Conv1d(266, 256, kernel_size=(1,), stride=(1,))
    (bn_l0): BatchNorm1d(256, eps=1e-05, momentum=0.1, affine=True, track_running_stats=True)
    (bn_f0): BatchNorm1d(256, eps=1e-05, momentum=0.1, affine=True, track_running_stats=True)
  )
  (fp4): SurfaceFeaturePropagationCD(
    (mlp_convs): ModuleList(
      (0): Linear(in_features=256, out_features=256, bias=True)
    )
    (mlp_bns): ModuleList(
      (0): BatchNorm1d(256, eps=1e-05, momentum=0.1, affine=True, track_running_stats=True)
    )
    (mlp_f0): Linear(in_features=512, out_features=256, bias=True)
    (norm_f0): BatchNorm1d(256, eps=1e-05, momentum=0.1, affine=True, track_running_stats=True)
    (mlp_s0): Linear(in_features=256, out_features=256, bias=True)
    (norm_s0): BatchNorm1d(256, eps=1e-05, momentum=0.1, affine=True, track_running_stats=True)
  )
  (fp3): SurfaceFeaturePropagationCD(
    (mlp_convs): ModuleList(
      (0): Linear(in_features=256, out_features=256, bias=True)
    )
    (mlp_bns): ModuleList(
      (0): BatchNorm1d(256, eps=1e-05, momentum=0.1, affine=True, track_running_stats=True)
    )
    (mlp_f0): Linear(in_features=256, out_features=256, bias=True)
    (norm_f0): BatchNorm1d(256, eps=1e-05, momentum=0.1, affine=True, track_running_stats=True)
    (mlp_s0): Linear(in_features=128, out_features=256, bias=True)
    (norm_s0): BatchNorm1d(256, eps=1e-05, momentum=0.1, affine=True, track_running_stats=True)
  )
  (fp2): SurfaceFeaturePropagationCD(
    (mlp_convs): ModuleList(
      (0): Linear(in_features=256, out_features=128, bias=True)
    )
    (mlp_bns): ModuleList(
      (0): BatchNorm1d(128, eps=1e-05, momentum=0.1, affine=True, track_running_stats=True)
    )
    (mlp_f0): Linear(in_features=256, out_features=256, bias=True)
    (norm_f0): BatchNorm1d(256, eps=1e-05, momentum=0.1, affine=True, track_running_stats=True)
    (mlp_s0): Linear(in_features=64, out_features=256, bias=True)
    (norm_s0): BatchNorm1d(256, eps=1e-05, momentum=0.1, affine=True, track_running_stats=True)
  )
  (fp1): SurfaceFeaturePropagationCD(
    (mlp_convs): ModuleList(
      (0): Linear(in_features=128, out_features=128, bias=True)
      (1): Linear(in_features=128, out_features=128, bias=True)
    )
    (mlp_bns): ModuleList(
      (0): BatchNorm1d(128, eps=1e-05, momentum=0.1, affine=True, track_running_stats=True)
      (1): BatchNorm1d(128, eps=1e-05, momentum=0.1, affine=True, track_running_stats=True)
    )
    (mlp_f0): Linear(in_features=128, out_features=128, bias=True)
    (norm_f0): BatchNorm1d(128, eps=1e-05, momentum=0.1, affine=True, track_running_stats=True)
  )
  (classifier): Sequential(
    (0): Linear(in_features=128, out_features=128, bias=True)
    (1): BatchNorm1d(128, eps=1e-05, momentum=0.1, affine=True, track_running_stats=True)
    (2): ReLU(inplace=True)
    (3): Dropout(p=0.5, inplace=False)
    (4): Linear(in_features=128, out_features=13, bias=True)
  )
  (surface_constructor): UmbrellaSurfaceConstructor(
    (mlps): Sequential(
      (0): Conv1d(10, 10, kernel_size=(1,), stride=(1,))
      (1): BatchNorm1d(10, eps=1e-05, momentum=0.1, affine=True, track_running_stats=True)
      (2): ReLU(inplace=True)
      (3): Conv1d(10, 10, kernel_size=(1,), stride=(1,))
    )
  )
)
[2022-12-11 00:05:20,550 INFO train.py line 133 1955593] Total Number of Parameters: 0.976 M
[2022-12-11 00:11:26,737 INFO train.py line 127 1958093] {
    "aug_args": {
        "pert_factor": 0.03,
        "pert_prob": 1.0,
        "rot_prob": 0.5,
        "scale_ani": true,
        "scale_factor": 0.1,
        "scale_prob": 1.0,
        "shift_prob": 1.0,
…
